[net]
# Testing
#batch=1
#subdivisions=1
# Training
batch=32
subdivisions=32
width=512
height=512
channels=3
momentum=0.949
decay=0.0005
angle=0
saturation = 1.5
exposure = 1.5
hue=.1

#learning_rate=0.001
learning_rate=0.0001
burn_in=2000
max_batches = 8000
policy=steps
steps=6400,7200
scales=.1,.1

#cutmix=1
illu=1
mosaic=1
letter_box=1

#23:104x104 54:52x52 85:26x26 104:13x13 for 416

[convolutional]
batch_normalize=1
filters=32
size=3
stride=1
pad=1
activation=mish

# Downsample

[convolutional]
batch_normalize=1
filters=64
size=3
stride=2
pad=1
activation=mish

[convolutional]
batch_normalize=1
filters=64
size=1
stride=1
pad=1
activation=mish

[route]
layers = -2

[convolutional]
batch_normalize=1
filters=64
size=1
stride=1
pad=1
activation=mish

[convolutional]
batch_normalize=1
filters=32
size=1
stride=1
pad=1
activation=mish

[convolutional]
batch_normalize=1
filters=64
size=3
stride=1
pad=1
activation=mish

[shortcut]
from=-3
activation=linear

[convolutional]
batch_normalize=1
filters=64
size=1
stride=1
pad=1
activation=mish

[route]
layers = -1,-7

[convolutional]
batch_normalize=1
filters=64
size=1
stride=1
pad=1
activation=mish

# Downsample

[convolutional]
batch_normalize=1
filters=128
size=3
stride=2
pad=1
activation=mish

[convolutional]
batch_normalize=1
filters=64
size=1
stride=1
pad=1
activation=mish

[route]
layers = -2

[convolutional]
batch_normalize=1
filters=64
size=1
stride=1
pad=1
activation=mish

[convolutional]
batch_normalize=1
filters=64
size=1
stride=1
pad=1
activation=mish

[convolutional]
batch_normalize=1
filters=64
size=3
stride=1
pad=1
activation=mish

[shortcut]
from=-3
activation=linear

[convolutional]
batch_normalize=1
filters=64
size=1
stride=1
pad=1
activation=mish

[convolutional]
batch_normalize=1
filters=64
size=3
stride=1
pad=1
activation=mish

[shortcut]
from=-3
activation=linear

[convolutional]
batch_normalize=1
filters=64
size=1
stride=1
pad=1
activation=mish

[route]
layers = -1,-10

[convolutional]
batch_normalize=1
filters=128
size=1
stride=1
pad=1
activation=mish

# Downsample

[convolutional]
batch_normalize=1
filters=256
size=3
stride=2
pad=1
activation=mish

[convolutional]
batch_normalize=1
filters=128
size=1
stride=1
pad=1
activation=mish

[route]
layers = -2

[convolutional]
batch_normalize=1
filters=128
size=1
stride=1
pad=1
activation=mish

[convolutional]
batch_normalize=1
filters=128
size=1
stride=1
pad=1
activation=mish

[convolutional]
batch_normalize=1
filters=128
size=3
stride=1
pad=1
activation=mish

[shortcut]
from=-3
activation=linear

[convolutional]
batch_normalize=1
filters=128
size=1
stride=1
pad=1
activation=mish

[convolutional]
batch_normalize=1
filters=128
size=3
stride=1
pad=1
activation=mish

[shortcut]
from=-3
activation=linear

[convolutional]
batch_normalize=1
filters=128
size=1
stride=1
pad=1
activation=mish

[convolutional]
batch_normalize=1
filters=128
size=3
stride=1
pad=1
activation=mish

[shortcut]
from=-3
activation=linear

[convolutional]
batch_normalize=1
filters=128
size=1
stride=1
pad=1
activation=mish

[convolutional]
batch_normalize=1
filters=128
size=3
stride=1
pad=1
activation=mish

[shortcut]
from=-3
activation=linear


[convolutional]
batch_normalize=1
filters=128
size=1
stride=1
pad=1
activation=mish

[convolutional]
batch_normalize=1
filters=128
size=3
stride=1
pad=1
activation=mish

[shortcut]
from=-3
activation=linear

[convolutional]
batch_normalize=1
filters=128
size=1
stride=1
pad=1
activation=mish

[convolutional]
batch_normalize=1
filters=128
size=3
stride=1
pad=1
activation=mish

[shortcut]
from=-3
activation=linear

[convolutional]
batch_normalize=1
filters=128
size=1
stride=1
pad=1
activation=mish

[convolutional]
batch_normalize=1
filters=128
size=3
stride=1
pad=1
activation=mish

[shortcut]
from=-3
activation=linear

[convolutional]
batch_normalize=1
filters=128
size=1
stride=1
pad=1
activation=mish

[convolutional]
batch_normalize=1
filters=128
size=3
stride=1
pad=1
activation=mish

[shortcut]
from=-3
activation=linear

[convolutional]
batch_normalize=1
filters=128
size=1
stride=1
pad=1
activation=mish

[route]
layers = -1,-28

[convolutional]
batch_normalize=1
filters=256
size=1
stride=1
pad=1
activation=mish

# Downsample

[convolutional]
batch_normalize=1
filters=512
size=3
stride=2
pad=1
activation=mish

[convolutional]
batch_normalize=1
filters=256
size=1
stride=1
pad=1
activation=mish

[route]
layers = -2

[convolutional]
batch_normalize=1
filters=256
size=1
stride=1
pad=1
activation=mish

[convolutional]
batch_normalize=1
filters=256
size=1
stride=1
pad=1
activation=mish

[convolutional]
batch_normalize=1
filters=256
size=3
stride=1
pad=1
activation=mish

[shortcut]
from=-3
activation=linear


[convolutional]
batch_normalize=1
filters=256
size=1
stride=1
pad=1
activation=mish

[convolutional]
batch_normalize=1
filters=256
size=3
stride=1
pad=1
activation=mish

[shortcut]
from=-3
activation=linear


[convolutional]
batch_normalize=1
filters=256
size=1
stride=1
pad=1
activation=mish

[convolutional]
batch_normalize=1
filters=256
size=3
stride=1
pad=1
activation=mish

[shortcut]
from=-3
activation=linear


[convolutional]
batch_normalize=1
filters=256
size=1
stride=1
pad=1
activation=mish

[convolutional]
batch_normalize=1
filters=256
size=3
stride=1
pad=1
activation=mish

[shortcut]
from=-3
activation=linear


[convolutional]
batch_normalize=1
filters=256
size=1
stride=1
pad=1
activation=mish

[convolutional]
batch_normalize=1
filters=256
size=3
stride=1
pad=1
activation=mish

[shortcut]
from=-3
activation=linear


[convolutional]
batch_normalize=1
filters=256
size=1
stride=1
pad=1
activation=mish

[convolutional]
batch_normalize=1
filters=256
size=3
stride=1
pad=1
activation=mish

[shortcut]
from=-3
activation=linear


[convolutional]
batch_normalize=1
filters=256
size=1
stride=1
pad=1
activation=mish

[convolutional]
batch_normalize=1
filters=256
size=3
stride=1
pad=1
activation=mish

[shortcut]
from=-3
activation=linear

[convolutional]
batch_normalize=1
filters=256
size=1
stride=1
pad=1
activation=mish

[convolutional]
batch_normalize=1
filters=256
size=3
stride=1
pad=1
activation=mish

[shortcut]
from=-3
activation=linear

[convolutional]
batch_normalize=1
filters=256
size=1
stride=1
pad=1
activation=mish

[route]
layers = -1,-28

[convolutional]
batch_normalize=1
filters=512
size=1
stride=1
pad=1
activation=mish

# Downsample

[convolutional]
batch_normalize=1
filters=1024
size=3
stride=2
pad=1
activation=mish

[convolutional]
batch_normalize=1
filters=512
size=1
stride=1
pad=1
activation=mish

[route]
layers = -2

[convolutional]
batch_normalize=1
filters=512
size=1
stride=1
pad=1
activation=mish

[convolutional]
batch_normalize=1
filters=512
size=1
stride=1
pad=1
activation=mish

[convolutional]
batch_normalize=1
filters=512
size=3
stride=1
pad=1
activation=mish

[shortcut]
from=-3
activation=linear

[convolutional]
batch_normalize=1
filters=512
size=1
stride=1
pad=1
activation=mish

[convolutional]
batch_normalize=1
filters=512
size=3
stride=1
pad=1
activation=mish

[shortcut]
from=-3
activation=linear

[convolutional]
batch_normalize=1
filters=512
size=1
stride=1
pad=1
activation=mish

[convolutional]
batch_normalize=1
filters=512
size=3
stride=1
pad=1
activation=mish

[shortcut]
from=-3
activation=linear

[convolutional]
batch_normalize=1
filters=512
size=1
stride=1
pad=1
activation=mish

[convolutional]
batch_normalize=1
filters=512
size=3
stride=1
pad=1
activation=mish

[shortcut]
from=-3
activation=linear

[convolutional]
batch_normalize=1
filters=512
size=1
stride=1
pad=1
activation=mish

[route]
layers = -1,-16

[convolutional]
batch_normalize=1
filters=1024
size=1
stride=1
pad=1
activation=mish

##########################

[convolutional]
batch_normalize=1
filters=512
size=1
stride=1
pad=1
activation=mish

[convolutional]
batch_normalize=1
size=3
stride=1
pad=1
filters=1024
activation=mish

[convolutional]
batch_normalize=1
filters=512
size=1
stride=1
pad=1
activation=mish

### SPP ###
[maxpool]
stride=1
size=5

[route]
layers=-2

[maxpool]
stride=1
size=9

[route]
layers=-4

[maxpool]
stride=1
size=13

[route]
layers=-1,-3,-5,-6
### End SPP ###

[convolutional]
batch_normalize=1
filters=512
size=1
stride=1
pad=1
activation=mish

[convolutional]
batch_normalize=1
size=3
stride=1
pad=1
filters=1024
activation=mish

[convolutional]
batch_normalize=1
filters=512
size=1
stride=1
pad=1
activation=mish

[convolutional]
batch_normalize=1
filters=256
size=1
stride=1
pad=1
activation=mish

[upsample]
stride=2

[route]
layers = 85

[convolutional]
batch_normalize=1
filters=256
size=1
stride=1
pad=1
activation=mish

[route]
layers = -1, -3

[convolutional]
batch_normalize=1
filters=256
size=1
stride=1
pad=1
activation=mish

[convolutional]
batch_normalize=1
size=3
stride=1
pad=1
filters=512
activation=mish

[convolutional]
batch_normalize=1
filters=256
size=1
stride=1
pad=1
activation=mish

[convolutional]
batch_normalize=1
size=3
stride=1
pad=1
filters=512
activation=mish

[convolutional]
batch_normalize=1
filters=256
size=1
stride=1
pad=1
activation=mish

[convolutional]
batch_normalize=1
filters=128
size=1
stride=1
pad=1
activation=mish

[upsample]
stride=2

[route]
layers = 54

[convolutional]
batch_normalize=1
filters=128
size=1
stride=1
pad=1
activation=mish

[route]
layers = -1, -3

[convolutional]
batch_normalize=1
filters=128
size=1
stride=1
pad=1
activation=mish

[convolutional]
batch_normalize=1
size=3
stride=1
pad=1
filters=256
activation=mish

[convolutional]
batch_normalize=1
filters=128
size=1
stride=1
pad=1
activation=mish

[convolutional]
batch_normalize=1
size=3
stride=1
pad=1
filters=256
activation=mish

[convolutional]
batch_normalize=1
filters=128
size=1
stride=1
pad=1
activation=mish

##########################

[convolutional]
batch_normalize=1
size=3
stride=2
pad=1
filters=256
activation=mish

[route]
layers = -1, -12

[convolutional]
batch_normalize=1
filters=256
size=1
stride=1
pad=1
activation=mish

[convolutional]
batch_normalize=1
size=3
stride=1
pad=1
filters=512
activation=mish

[convolutional]
batch_normalize=1
filters=256
size=1
stride=1
pad=1
activation=mish

# 118
[convolutional]
batch_normalize=1
size=3
stride=1
pad=1
filters=512
activation=mish

# 119
[convolutional]
batch_normalize=1
filters=256
size=1
stride=1
pad=1
activation=mish

[convolutional]
batch_normalize=1
size=3
stride=2
pad=1
filters=512
activation=mish

[route]
layers = -1, -29

[convolutional]
batch_normalize=1
filters=512
size=1
stride=1
pad=1
activation=mish

[convolutional]
batch_normalize=1
size=3
stride=1
pad=1
filters=1024
activation=mish

[convolutional]
batch_normalize=1
filters=512
size=1
stride=1
pad=1
activation=mish

# 125
[convolutional]
batch_normalize=1
size=3
stride=1
pad=1
filters=1024
activation=mish

# 126
[convolutional]
batch_normalize=1
filters=512
size=1
stride=1
pad=1
activation=mish

############################

[route]
layers=150

[convolutional]
batch_normalize=1
size=1
stride=1
filters=16
activation=mish

[route]
layers=143

[convolutional]
batch_normalize=1
size=3
stride=2
pad=1
filters=512
activation=mish

[convolutional]
batch_normalize=1
size=1
stride=1
filters=16
activation=mish

[route]
layers=136

[maxpool]
size=2
stride=2

[convolutional]
batch_normalize=1
size=3
stride=2
pad=1
filters=512
activation=mish

[convolutional]
batch_normalize=1
size=1
stride=1
filters=16
activation=mish

[route]
layers=-8,-5,-1

[convolutional]
stride=1
size=1
filters=3
activation=normalize_channels_softmax

[route]
layers=-1
group_id=0
groups=3

[scale_channels]
from=-12
scale_wh=1

[route]
layers=-3
group_id=1
groups=3

[scale_channels]
from=-11
scale_wh=1

[route]
layers=-5
group_id=2
groups=3

[scale_channels]
from=-9
scale_wh=1

[shortcut]
from=-3
activation=linear

[shortcut]
from=-6
activation=linear

[convolutional]
batch_normalize=1
size=3
stride=1
pad=1
filters=1024
activation=mish

[convolutional]
size=1
stride=1
pad=1
filters=27
activation=logistic

[yolo]
mask = 6,7,8
anchors = 10,13,  16,30,  33,23,  30,61,  62,45,  59,119,  116,90,  156,198,  373,326
classes=4
num=9
jitter=.1
ignore_thresh = .7
truth_thresh = 1
random=0
resize=1.5
scale_x_y = 2.0
iou_thresh=0.213
cls_normalizer=1.0
iou_normalizer=0.07
iou_loss=ciou
nms_kind=greedynms
beta_nms=0.6
new_coord=1
max_delta=5

###########
[route]
layers=150

[convolutional]
batch_normalize=1
size=1
stride=1
pad=1
filters=256
activation=mish

[upsample]
stride=2

[convolutional]
batch_normalize=1
size=1
stride=1
filters=16
activation=mish

[route]
layers=143

[convolutional]
batch_normalize=1
size=1
stride=1
filters=16
activation=mish

[route]
layers=136

[convolutional]
batch_normalize=1
size=3
stride=2
pad=1
filters=256
activation=mish

[convolutional]
batch_normalize=1
size=1
stride=1
filters=16
activation=mish

[route]
layers=-6,-4,-1

[convolutional]
stride=1
size=1
filters=3
activation=normalize_channels_softmax

[route]
layers=-1
group_id=0
groups=3

[scale_channels]
from=-10
scale_wh=1

[route]
layers=-3
group_id=1
groups=3

[scale_channels]
from=-10
scale_wh=1

[route]
layers=-5
group_id=2
groups=3

[scale_channels]
from=-9
scale_wh=1

[shortcut]
from=-3
activation=linear

[shortcut]
from=-6
activation=linear

[convolutional]
batch_normalize=1
size=3
stride=1
pad=1
filters=512
activation=mish

[convolutional]
size=1
stride=1
pad=1
filters=27
activation=logistic

[yolo]
mask = 3,4,5
anchors = 10,13,  16,30,  33,23,  30,61,  62,45,  59,119,  116,90,  156,198,  373,326
classes=4
num=9
jitter=.1
ignore_thresh = .7
truth_thresh = 1
random=0
resize=1.5
scale_x_y = 2.0
iou_thresh=0.213
cls_normalizer=1.0
iou_normalizer=0.07
iou_loss=ciou
nms_kind=greedynms
beta_nms=0.6
new_coord=1
max_delta=5

##########
[route]
layers=150

[convolutional]
batch_normalize=1
size=1
stride=1
pad=1
filters=128
activation=mish

[upsample]
stride=4

[convolutional]
batch_normalize=1
size=1
stride=1
filters=16
activation=mish

[route]
layers=143

[convolutional]
batch_normalize=1
size=1
stride=1
pad=1
filters=128
activation=mish

[upsample]
stride=2

[convolutional]
batch_normalize=1
size=1
stride=1
filters=16
activation=mish

[route]
layers=136

[convolutional]
batch_normalize=1
size=1
stride=1
filters=16
activation=mish

[route]
layers=-7,-3,-1

[convolutional]
stride=1
size=1
filters=3
activation=normalize_channels_softmax

[route]
layers=-1
group_id=0
groups=3

[scale_channels]
from=-11
scale_wh=1

[route]
layers=-3
group_id=1
groups=3

[scale_channels]
from=-9
scale_wh=1

[route]
layers=-5
group_id=2
groups=3

[scale_channels]
from=-9
scale_wh=1

[shortcut]
from=-3
activation=linear

[shortcut]
from=-6
activation=linear

[convolutional]
batch_normalize=1
size=3
stride=1
pad=1
filters=256
activation=mish

[convolutional]
size=1
stride=1
pad=1
filters=27
activation=logistic

[yolo]
mask = 0,1,2
anchors = 10,13,  16,30,  33,23,  30,61,  62,45,  59,119,  116,90,  156,198,  373,326
classes=4
num=9
jitter=.1
ignore_thresh = .7
truth_thresh = 1
random=0
resize=1.5
scale_x_y = 2.0
iou_thresh=0.213
cls_normalizer=1.0
iou_normalizer=0.07
iou_loss=ciou
nms_kind=greedynms
beta_nms=0.6
new_coord=1
max_delta=5
